…
isTrain: False
learn_residual: True
loadSizeX: 640
loadSizeY: 360
max_dataset_size: inf
model: test
nThreads: 2
n_layers_D: 3
name: testWeights
ndf: 64
ngf: 64
no_dropout: False
no_flip: False
norm: instance
ntest: inf
output_nc: 3
phase: test
resize_or_crop: False
results_dir: ./results/
serial_batches: False
which_direction: AtoB
which_epoch: latest
which_model_netD: basic
which_model_netG: resnet_9blocks
-------------- End ----------------
---------- Networks initialized -------------
DataParallel(
  (module): ResnetGenerator(
    (input0Prc): Sequential(
      (0): ReflectionPad2d((3, 3, 3, 3))
      (1): Conv2d(3, 64, kernel_size=(7, 7), stride=(1, 1))
    )
    (input1Prc): Sequential(
      (0): ReflectionPad2d((3, 3, 3, 3))
      (1): Conv2d(3, 64, kernel_size=(7, 7), stride=(1, 1), bias=False)
    )
    (input2Prc): Sequential(
      (0): ReflectionPad2d((3, 3, 3, 3))
      (1): Conv2d(3, 64, kernel_size=(7, 7), stride=(1, 1), bias=False)
    )
    (model): Sequential(
      (0): InstanceNorm2d(64, eps=1e-05, momentum=0.1, affine=False)
      (1): ReLU(inplace)
      (2): Conv2d(64, 128, kernel_size=(3, 3), stride=(2, 2), padding=(1, 1))
      (3): InstanceNorm2d(128, eps=1e-05, momentum=0.1, affine=False)
      (4): ReLU(inplace)
      (5): Conv2d(128, 256, kernel_size=(3, 3), stride=(2, 2), padding=(1, 1))
      (6): InstanceNorm2d(256, eps=1e-05, momentum=0.1, affine=False)
      (7): ReLU(inplace)
      (8): ResnetBlock(
        (conv_block): Sequential(
          (0): ReflectionPad2d((1, 1, 1, 1))
          (1): Conv2d(256, 256, kernel_size=(3, 3), stride=(1, 1))
          (2): InstanceNorm2d(256, eps=1e-05, momentum=0.1, affine=False)
          (3): ReLU(inplace)
          (4): Dropout(p=0.5)
          (5): ReflectionPad2d((1, 1, 1, 1))
          (6): Conv2d(256, 256, kernel_size=(3, 3), stride=(1, 1))
          (7): InstanceNorm2d(256, eps=1e-05, momentum=0.1, affine=False)
        )
      )
      (9): ResnetBlock(
        (conv_block): Sequential(
          (0): ReflectionPad2d((1, 1, 1, 1))
          (1): Conv2d(256, 256, kernel_size=(3, 3), stride=(1, 1))
          (2): InstanceNorm2d(256, eps=1e-05, momentum=0.1, affine=False)
          (3): ReLU(inplace)
          (4): Dropout(p=0.5)
          (5): ReflectionPad2d((1, 1, 1, 1))
          (6): Conv2d(256, 256, kernel_size=(3, 3), stride=(1, 1))
          (7): InstanceNorm2d(256, eps=1e-05, momentum=0.1, affine=False)
        )
      )
      (10): ResnetBlock(
        (conv_block): Sequential(
          (0): ReflectionPad2d((1, 1, 1, 1))
          (1): Conv2d(256, 256, kernel_size=(3, 3), stride=(1, 1))
          (2): InstanceNorm2d(256, eps=1e-05, momentum=0.1, affine=False)
          (3): ReLU(inplace)
          (4): Dropout(p=0.5)
          (5): ReflectionPad2d((1, 1, 1, 1))
          (6): Conv2d(256, 256, kernel_size=(3, 3), stride=(1, 1))
          (7): InstanceNorm2d(256, eps=1e-05, momentum=0.1, affine=False)
        )
      )
      (11): ResnetBlock(
        (conv_block): Sequential(
          (0): ReflectionPad2d((1, 1, 1, 1))
          (1): Conv2d(256, 256, kernel_size=(3, 3), stride=(1, 1))
          (2): InstanceNorm2d(256, eps=1e-05, momentum=0.1, affine=False)
          (3): ReLU(inplace)
          (4): Dropout(p=0.5)
          (5): ReflectionPad2d((1, 1, 1, 1))
          (6): Conv2d(256, 256, kernel_size=(3, 3), stride=(1, 1))
          (7): InstanceNorm2d(256, eps=1e-05, momentum=0.1, affine=False)
        )
      )
      (12): ResnetBlock(
        (conv_block): Sequential(
          (0): ReflectionPad2d((1, 1, 1, 1))
          (1): Conv2d(256, 256, kernel_size=(3, 3), stride=(1, 1))
          (2): InstanceNorm2d(256, eps=1e-05, momentum=0.1, affine=False)
          (3): ReLU(inplace)
          (4): Dropout(p=0.5)
          (5): ReflectionPad2d((1, 1, 1, 1))
          (6): Conv2d(256, 256, kernel_size=(3, 3), stride=(1, 1))
          (7): InstanceNorm2d(256, eps=1e-05, momentum=0.1, affine=False)
        )
      )
      (13): ResnetBlock(
        (conv_block): Sequential(
          (0): ReflectionPad2d((1, 1, 1, 1))
          (1): Conv2d(256, 256, kernel_size=(3, 3), stride=(1, 1))
          (2): InstanceNorm2d(256, eps=1e-05, momentum=0.1, affine=False)
          (3): ReLU(inplace)
          (4): Dropout(p=0.5)
          (5): ReflectionPad2d((1, 1, 1, 1))
          (6): Conv2d(256, 256, kernel_size=(3, 3), stride=(1, 1))
          (7): InstanceNorm2d(256, eps=1e-05, momentum=0.1, affine=False)
        )
      )
      (14): ResnetBlock(
        (conv_block): Sequential(
          (0): ReflectionPad2d((1, 1, 1, 1))
          (1): Conv2d(256, 256, kernel_size=(3, 3), stride=(1, 1))
          (2): InstanceNorm2d(256, eps=1e-05, momentum=0.1, affine=False)
          (3): ReLU(inplace)
          (4): Dropout(p=0.5)
          (5): ReflectionPad2d((1, 1, 1, 1))
          (6): Conv2d(256, 256, kernel_size=(3, 3), stride=(1, 1))
          (7): InstanceNorm2d(256, eps=1e-05, momentum=0.1, affine=False)
        )
      )
      (15): ResnetBlock(
        (conv_block): Sequential(
          (0): ReflectionPad2d((1, 1, 1, 1))
          (1): Conv2d(256, 256, kernel_size=(3, 3), stride=(1, 1))
          (2): InstanceNorm2d(256, eps=1e-05, momentum=0.1, affine=False)
          (3): ReLU(inplace)
          (4): Dropout(p=0.5)
          (5): ReflectionPad2d((1, 1, 1, 1))
          (6): Conv2d(256, 256, kernel_size=(3, 3), stride=(1, 1))
          (7): InstanceNorm2d(256, eps=1e-05, momentum=0.1, affine=False)
        )
      )
      (16): ResnetBlock(
        (conv_block): Sequential(
          (0): ReflectionPad2d((1, 1, 1, 1))
          (1): Conv2d(256, 256, kernel_size=(3, 3), stride=(1, 1))
          (2): InstanceNorm2d(256, eps=1e-05, momentum=0.1, affine=False)
          (3): ReLU(inplace)
          (4): Dropout(p=0.5)
          (5): ReflectionPad2d((1, 1, 1, 1))
          (6): Conv2d(256, 256, kernel_size=(3, 3), stride=(1, 1))
          (7): InstanceNorm2d(256, eps=1e-05, momentum=0.1, affine=False)
        )
      )
      (17): ConvTranspose2d(256, 128, kernel_size=(3, 3), stride=(2, 2), padding=(1, 1), output_padding=(1, 1))
      (18): InstanceNorm2d(128, eps=1e-05, momentum=0.1, affine=False)
      (19): ReLU(inplace)
      (20): ConvTranspose2d(128, 64, kernel_size=(3, 3), stride=(2, 2), padding=(1, 1), output_padding=(1, 1))
      (21): InstanceNorm2d(64, eps=1e-05, momentum=0.1, affine=False)
      (22): ReLU(inplace)
      (23): ReflectionPad2d((3, 3, 3, 3))
      (24): Conv2d(64, 3, kernel_size=(7, 7), stride=(1, 1))
      (25): Tanh()
    )
  )
)
Total number of parameters: 11396995
-----------------------------------------------



















































































































































































































































…
